data/sharpr_mpra/scorer_baseline_cnn.pt (torch, 11349 bytes, 3 tensors)

conv.weight f4 [64, 4, 8]
0.12096968 -0.07392456 -0.09211565 0.14841941 0.15311272 -0.17372668 0.1556038 -0.019311786
-0.18621798 -0.05668681 -0.033130627 0.1485526 -0.023114236 0.16833511 -0.13194646 0.049182527
-0.040687416 0.11264725 -0.14107893 -0.039517548 0.1275097 -0.14334784 0.122969784 -0.15613037
0.04749826 -0.09873504 -0.016644618 0.16643232 0.031299874 -0.09112519 7.461135e-05 0.13450253
0.063514486 0.15336807 -0.04445993 -0.016073368 -0.1049429 0.07691565 0.14791097 0.053727847
-0.09226582 -0.06634173 -0.1321431 -0.0928817 -0.101766825 -0.119388625 -0.030630931 -0.013874716
0.047047414 0.054614626 -0.14323847 -0.05351999 -0.10213083 -0.06797928 -0.025804665 -0.11464712
0.14042224 0.077074125 0.16292882 0.16793993 0.07181219 -0.043192282 -0.13025187 0.16825612
0.04605953 0.0838548 -0.07417175 0.15129776 0.08467199 -0.14382945 0.16620703 -0.14144574
0.07659493 -0.09162852 0.10518383 -0.0062151914 -0.036370803 0.06550889 0.1586934 0.010147609
0.12415023 0.1347913 -0.17436337 0.12757494 0.008667348 -0.13028757 0.0151469475 0.009540181
-0.045831114 0.045441724 0.16233864 0.017558359 0.13132632 -0.026215255 -0.065033644 0.036315326
-0.106709845 -0.08780684 0.1325468 -0.13355137 -0.03163947 0.0016685483 -0.008146664 0.12059455
-0.13324973 0.04262208 -0.1182762 0.14945085 0.09803403 0.17500323 0.13926356 -0.14549577
-0.17776026 0.08132907 0.092967175 0.06183086 -0.061398856 0.039318625 0.120225824 0.033727057
0.14185037 -0.12247734 -0.15719017 -0.15412092 -0.10761775 0.031740356 0.10123061 -0.10507127
-0.017303694 -0.039599963 -0.028253883 0.14111733 -0.063293606 0.06751735 0.06593904 0.056513235
-0.14533493 -0.01669032 0.15839283 0.011727385 0.11462762 -0.06578452 0.043267567 -0.09494829
-0.040997848 0.06085553 0.13529883 -0.11655554 -0.18565403 0.060266085 0.11190779 0.11576413
-0.055072915 0.096686505 0.123499446 -0.085227825 -0.101838104 0.10620012 -0.16478655 -0.07293817
-0.036765143 -0.1254418 -0.107348695 -0.02548938 0.008625773 0.06577083 0.011116129 -0.059586216
0.1757152 -0.1428507 0.09017838 0.10189654 -0.15904091 -0.14559892 0.15824386 0.099224165
0.032682482 -0.10415009 0.047711 -0.04341065 -0.035795137 -0.020685768 -0.12405657 0.054066736
-0.152387 -0.115885 -0.12454478 0.109725595 0.024490051 0.14254797 0.071314685 -0.1698541
0.15446357 0.05638723 0.12908779 0.07052547 -0.030916635 -0.051535644 -0.07661669 -0.050578903
-0.11413665 -0.1618791 -0.07317564 0.02649188 0.17291671 0.08856469 -0.038371675 0.14849955
0.03061494 -0.1310305 -0.00197067 -0.019882044 0.14497285 -0.00015242025 -0.15174352 0.07992146
0.09710625 -0.16240136 0.13064022 0.1699214 -0.11169557 -0.053099584 -0.07907327 0.12998092
-0.11345091 -0.097052604 -0.04661033 -0.053727336 -0.12397032 0.044356063 -0.17974296 0.09904732
0.05222739 0.008969107 0.071865134 0.046799567 0.13444375 -0.18414532 -0.035498787 -0.11391713
-0.03658786 0.030762624 0.0061583314 0.13922244 0.12534651 -0.040001363 0.1178064 0.13324724
0.04090343 0.072847664 -0.106669456 -0.020928776 -0.07429771 -0.0688683 0.06881418 0.002713926
00000000: f4be f73d c265 97bd 21a7 bcbd 42fb 173e
00000010: 95c9 1c3e 68e5 31be 9a56 1f3e c033 9ebc
00000020: edaf 3ebe 6e30 68bd fbb3 07bd 2c1e 183e
00000030: 115a bdbc 0a60 2c3e f91c 07be 9e73 493d
00000040: d9a7 26bd 9ab3 e63d ff76 10be 27dd 21bd
00000050: e791 023e c7c9 12be 95d7 fb3d a4e0 1fbe
00000060: 898d 423d 9935 cabd 4b5a 88bc 3c6d 2a3e
00000070: 4c34 003d d89f babd aa78 9c38 08bb 093e
00000080: e213 823d 850c 1d3e 9e1b 36bd 4cac 83bc
00000090: 4eec d6bd f485 9d3d f975 173e bb11 5c3d
000000a0: ddf5 bcbd 2cde 87bd 8550 07be c338 bebd
000000b0: 206b d0bd 0682 f4bd b8ed fabc c752 63bc
000000c0: cab4 403d 96b3 5f3d 1bad 12be c737 5bbd
000000d0: f829 d1bd b938 8bbd 4e64 d3bc 1ccc eabd
000000e0: d9ca 0f3e 0ad9 9d3d d0d6 263e 72f8 2b3e
000000f0: 4512 933d 64ea 30bd bf60 05be 554b 2c3e
00000100: eba8 3c3d 11bc ab3d 5ce7 97bd cded 1a3e
00000110: 8268 ad3d 0748 13be 2d32 2a3e 27d7 10be
00000120: cddd 9c3d bca7 bbbd 9f6a d73d cea8 cbbb
00000130: 8df9 14bd 8629 863d 8680 223e 2842 263c
00000140: 7a42 fe3d bb06 0a3e 508c 32be 01a3 023e
00000150: 7e01 0e3c 1b6a 05be e72a 783c 6b4e 1c3c
00000160: 68b9 3bbd 1a21 3a3d 1a3c 263e 8cd6 8f3c
00000170: 687a 063e 60c1 d6bc 5c30 85bd 61bf 143d
00000180: b18a dabd 13d4 b3bd 59ba 073e b1c1 08be
00000190: 6498 01bd 31b3 da3a 9679 05bc 47fa f63d
000001a0: 9e72 08be 7d94 2e3d cb3a f2bd a509 193e
000001b0: 11c6 c83d 0c34 333e 1b9b 0e3e d8fc 14be
000001c0: c906 36be db8f a63d 9365 be3d 5b42 7d3d
000001d0: 5e7d 7bbd 910c 213d f538 f63d 6225 0a3d
000001e0: 3941 113e 66d5 fabd 76f6 20be e0d1 1dbe
000001f0: b266 dcbd 2d02 023d fe51 cf3d 9b2f d7bd
00000200: 7ac0 8dbc 9233 22bd b074 e7bc 1081 103e
00000210: 14a0 81bd 8946 8a3d 0c0b 873d 6c7a 673d
00000220: aed2 14be 23ba 88bc bb31 223e 3824 403c
00000230: e3c1 ea3d 09ba 86bd 5539 313d 4074 c2bd
00000240: 5ced 27bd a643 793d c78b 0a3e acb4 eebd
00000250: 171c 3ebe 92d9 763d e92f e53d bf15 ed3d
00000260: 2394 61bd 9303 c63d 47ed fc3d ed8b aebd
00000270: 7f90 d0bd 737f d93d cebd 28be 9b60 95bd
00000280: 0c97 16bd d173 00be a2d9 dbbd 1bcf d0bc
00000290: 1d53 0d3c dbb2 863d 6d20 363c ad10 74bd
000002a0: afee 333e 7447 12be 71af b83d 22af d03d
000002b0: 9fdb 22be e217 15be ae0a 223e 0a36 cb3d
000002c0: 11de 053d a44c d5bd 9c6c 433d 5ecf 31bd
000002d0: ec9d 12bd 3375 a9bc 5f11 febd 1575 5d3d
000002e0: 560b 1cbe 1d55 edbd 5511 ffbd d0b7 e03d
000002f0: 5c9f c83c 18f8 113e 6f0d 923d 3cee 2dbe
00000300: b32b 1e3e 4cf6 663d 972f 043e a86f 903d
00000310: e244 fdbc 0a17 53bd 36e9 9cbd d32b 4fbd
00000320: 7ac0 e9bd a3c3 25be 1cdd 95bd 8005 d93c
00000330: 1411 313e 6761 b53d 9e2b 1dbd 4410 183e
00000340: 2fcc fa3c dc2c 06be 5b26 01bb abdf a2bc
00000350: c373 143e 00d3 1fb9 a762 1bbe ddad a33d
00000360: a4df c63d 8b4c 26be 8dc6 053e e0ff 2d3e
00000370: a6c0 e4bd f37e 59bd 2bf1 a1bd b819 053e
00000380: f358 e8bd 84c3 c6bd 79ea 3ebd 3211 5cbd
00000390: 27e4 fdbd b4ae 353d 8a0e 38be 52d9 ca3d
000003a0: 63ec 553d 29f3 123c 072e 933d e7b0 3f3d
000003b0: 9fab 093e 9790 3cbe 2d67 11bd 624d e9bd
000003c0: 27dd 15bd e601 fc3c d4cb c93b 5490 0e3e
000003d0: d65a 003e 78d8 23bd 7b44 f13d f771 083e
000003e0: 5b8a 273d 2831 953d 8475 dabd d372 abbc
000003f0: 6629 98bd d30a 8dbd 73ee 8c3d 1fdc 313b

conv.bias f4 [64]
-0.08526708 0.15413427 0.15472567 -0.008295903 -0.028634485 -0.04698561 0.13996555 0.053339537
-0.10835173 -0.17806236 -0.12610805 -0.06352647 -0.024784403 0.0156889 -0.070701495 0.09378478
-0.12911968 -0.17658797 -0.13171639 0.12731066 0.026605807 -0.093227476 0.11154586 0.08163463
0.14562827 -0.049797505 -0.13555354 -0.03230656 -0.11592222 -0.16557501 -0.08630037 -0.1510746
0.1747383 -0.1697761 0.12074602 -0.035220552 0.06752681 -0.020219669 -0.12252954 -0.120593816
-0.10099217 -0.1040629 -0.033319153 0.10583531 -0.063539274 0.102800995 0.06776518 -0.16548276
0.09422224 0.0889798 0.118776575 0.041500676 -0.063864656 0.16219153 0.09983861 -0.03920708
-0.1702163 0.13866438 0.09303239 -0.058918096 0.10664225 -0.16373023 0.083793215 0.14797673
00000000: 82a0 aebd 60d5 1d3e 6870 1e3e 8aeb 07bc
00000010: de92 eabc fc73 40bd 2153 0f3e 8f7a 5a3d
00000020: 83e7 ddbd fb55 36be 7822 01be 2a1a 82bd
00000030: a908 cbbc 0286 803c f2cb 90bd 3c12 c03d
00000040: f337 04be 7ad3 34be a9e0 06be ba5d 023e
00000050: 6cf4 d93c 0cee bebd 2872 e43d 0f30 a73d
00000060: 941f 153e 78f8 4bbd 8cce 0abe e253 04bd
00000070: a168 edbd 7f8c 29be 40be b0bd 4db3 1abe
00000080: 99ee 323e c9d9 2dbe b049 f73d 6d43 10bd
00000090: 7f4b 8a3d b8a3 a5bc c4f0 fabd e4f9 f6bd
000000a0: fcd4 cebd ee1e d5bd aa79 08bd 2fc0 d83d
000000b0: e120 82bd 5489 d23d 78c8 8a3d 5074 29be
000000c0: 97f7 c03d 0b3b b63d 2241 f33d 9dfc 293d
000000d0: 79cb 82bd 8915 263e 2f78 cc3d 9a97 20bd
000000e0: 2f4d 2ebe 09fe 0d3e c487 be3d 1a54 71bd
000000f0: 4167 da3d e6a8 27be c79b ab3d 3687 173e

fc.weight f4 [1, 64]
0.03809038 -0.08003666 -0.120005675 -0.040495686 -0.05570997 -0.11859983 -0.06461551 0.06256825
-0.061874684 0.083317585 -0.088220485 -0.03290747 -0.016794473 0.047962837 0.02350381 0.049622472
-0.11504687 0.07536676 0.09635989 0.032547604 -0.046451014 0.024988024 -0.006330271 0.0694031
0.08936541 -0.06581594 -0.02052094 -0.034689814 -0.09970964 0.067275465 -0.008726943 0.05099913
-0.0093416395 -0.060930938 0.011236957 -0.05113496 -0.04029519 0.004303299 0.07733742 0.075442635
0.064206846 0.06855348 -0.11783483 -0.007698342 0.006578767 -0.044362783 0.096095994 0.097885035
0.012344074 -0.114546925 -0.06095411 0.0040825875 0.09109315 -0.0040490543 0.10017999 0.039822195
-0.082620144 0.05984478 -0.009791013 -0.008865009 0.0534287 0.10238362 -0.10310408 0.007840439
00000000: a904 1c3d 43ea a3bd 89c5 f5bd cede 25bd
00000010: 2330 64bd 78e4 f2bd 2355 84bd c823 803d
00000020: 4f70 7dbd 69a2 aa3d f1ac b4bd fcc9 06bd
00000030: 9094 89bc ae74 443d 108b c03c ef40 4b3d
00000040: b29d ebbd e359 9a3d 5658 c53d a350 053d
00000050: 6b43 3ebd afb3 cc3c 296e cfbb 3623 8e3d
00000060: 3605 b73d 82ca 86bd 881b a8bc e816 0ebd
00000070: 9134 ccbd b8c7 893d 74fb 0ebc 77e4 503d
00000080: ad0d 19bc b892 79bd 371b 383c e472 51bd
00000090: 920c 25bd b002 8d3b 1563 9e3d ab81 9a3d
000000a0: e17e 833d c465 8c3d 6353 f1bd 6042 fcbb
000000b0: b392 d73b c0b5 35bd facd c43d f377 c83d
000000c0: cd3e 4a3c 9497 eabd 04ab 79bd 3ac7 853b
000000d0: 0c8f ba3d eead 84bb 2b2b cd3d 991c 233d
000000e0: c034 a9bd cd1f 753d 7c6a 20bc 8b3e 11bc
000000f0: 0dd8 5a3d 81ae d13d 3b28 d3bd 2f75 003c
